…
2023-10-25 15:42:42,190 - gensim.utils - INFO - KeyedVectors lifecycle event {'fname': 'models/pretrained/word2vec_model.gensim', 'datetime': '2023-10-25T15:42:42.185535', 'gensim': '4.3.2', 'python': '3.10.13 (main, Sep 11 2023, 08:39:02) [Clang 14.0.6 ]', 'platform': 'macOS-10.16-x86_64-i386-64bit', 'event': 'loaded'}
2023-10-25 15:42:45,351 - root - INFO - Testing hyperparameters: Embedding Size=150, Conv Width=64, LSTM Units=32, Dense Units=64, Batch Size=64
2023-10-25 15:43:16,574 - root - INFO - Model Architecture:
Model: "sequential"
_________________________________________________________________
 Layer (type)                Output Shape              Param #   
=================================================================
 embedding (Embedding)       (None, 40, 150)           450000000 
                                                                 
 conv1d (Conv1D)             (None, 36, 64)            48064     
                                                                 
 max_pooling1d (MaxPooling1  (None, 18, 64)            0         
 D)                                                              
                                                                 
 lstm (LSTM)                 (None, 18, 32)            12416     
                                                                 
 global_max_pooling1d (Glob  (None, 32)                0         
 alMaxPooling1D)                                                 
                                                                 
 dense (Dense)               (None, 64)                2112      
                                                                 
 dropout (Dropout)           (None, 64)                0         
                                                                 
 dense_1 (Dense)             (None, 5)                 325       
                                                                 
=================================================================
Total params: 450062917 (1.68 GB)
Trainable params: 62917 (245.77 KB)
Non-trainable params: 450000000 (1.68 GB)
_________________________________________________________________
2023-10-25 15:43:16,575 - root - INFO - Test Loss: 0.672505795955658
2023-10-25 15:43:16,575 - root - INFO - Test Accuracy: 0.7580000162124634
2023-10-25 15:43:16,575 - root - INFO - Testing hyperparameters: Embedding Size=150, Conv Width=64, LSTM Units=64, Dense Units=64, Batch Size=64
2023-10-25 15:43:52,601 - root - INFO - Model Architecture:
Model: "sequential_1"
_________________________________________________________________
 Layer (type)                Output Shape              Param #   
=================================================================
 embedding_1 (Embedding)     (None, 40, 150)           450000000 
                                                                 
 conv1d_1 (Conv1D)           (None, 36, 64)            48064     
                                                                 
 max_pooling1d_1 (MaxPoolin  (None, 18, 64)            0         
 g1D)                                                            
                                                                 
 lstm_1 (LSTM)               (None, 18, 64)            33024     
                                                                 
 global_max_pooling1d_1 (Gl  (None, 64)                0         
 obalMaxPooling1D)                                               
                                                                 
 dense_2 (Dense)             (None, 64)                4160      
                                                                 
 dropout_1 (Dropout)         (None, 64)                0         
                                                                 
 dense_3 (Dense)             (None, 5)                 325       
                                                                 
=================================================================
Total params: 450085573 (1.68 GB)
Trainable params: 85573 (334.27 KB)
Non-trainable params: 450000000 (1.68 GB)
_________________________________________________________________
2023-10-25 15:43:52,604 - root - INFO - Test Loss: 0.5940172076225281
2023-10-25 15:43:52,604 - root - INFO - Test Accuracy: 0.7940000295639038
2023-10-25 15:43:52,605 - root - INFO - Testing hyperparameters: Embedding Size=150, Conv Width=64, LSTM Units=32, Dense Units=128, Batch Size=64
2023-10-25 15:44:28,982 - root - INFO - Model Architecture:
Model: "sequential_2"
_________________________________________________________________
 Layer (type)                Output Shape              Param #   
=================================================================
 embedding_2 (Embedding)     (None, 40, 150)           450000000 
                                                                 
 conv1d_2 (Conv1D)           (None, 36, 64)            48064     
                                                                 
 max_pooling1d_2 (MaxPoolin  (None, 18, 64)            0         
 g1D)                                                            
                                                                 
 lstm_2 (LSTM)               (None, 18, 32)            12416     
                                                                 
 global_max_pooling1d_2 (Gl  (None, 32)                0         
 obalMaxPooling1D)                                               
                                                                 
 dense_4 (Dense)             (None, 128)               4224      
                                                                 
 dropout_2 (Dropout)         (None, 128)               0         
                                                                 
 dense_5 (Dense)             (None, 5)                 645       
                                                                 
=================================================================
Total params: 450065349 (1.68 GB)
Trainable params: 65349 (255.27 KB)
Non-trainable params: 450000000 (1.68 GB)
_________________________________________________________________
2023-10-25 15:44:28,983 - root - INFO - Test Loss: 0.6325253844261169
2023-10-25 15:44:28,983 - root - INFO - Test Accuracy: 0.7900000214576721
2023-10-25 15:44:28,983 - root - INFO - Testing hyperparameters: Embedding Size=150, Conv Width=64, LSTM Units=64, Dense Units=128, Batch Size=64
2023-10-25 15:45:02,985 - root - INFO - Model Architecture:
Model: "sequential_3"
_________________________________________________________________
 Layer (type)                Output Shape              Param #   
=================================================================
 embedding_3 (Embedding)     (None, 40, 150)           450000000 
                                                                 
 conv1d_3 (Conv1D)           (None, 36, 64)            48064     
                                                                 
 max_pooling1d_3 (MaxPoolin  (None, 18, 64)            0         
 g1D)                                                            
                                                                 
 lstm_3 (LSTM)               (None, 18, 64)            33024     
                                                                 
 global_max_pooling1d_3 (Gl  (None, 64)                0         
 obalMaxPooling1D)                                               
                                                                 
 dense_6 (Dense)             (None, 128)               8320      
                                                                 
 dropout_3 (Dropout)         (None, 128)               0         
                                                                 
 dense_7 (Dense)             (None, 5)                 645       
                                                                 
=================================================================
Total params: 450090053 (1.68 GB)
Trainable params: 90053 (351.77 KB)
Non-trainable params: 450000000 (1.68 GB)
_________________________________________________________________
2023-10-25 15:45:02,988 - root - INFO - Test Loss: 0.6474447846412659
2023-10-25 15:45:02,988 - root - INFO - Test Accuracy: 0.7860000133514404
2023-10-25 15:45:02,988 - root - INFO - Testing hyperparameters: Embedding Size=150, Conv Width=128, LSTM Units=32, Dense Units=64, Batch Size=64
2023-10-25 15:45:54,999 - root - INFO - Model Architecture:
Model: "sequential_4"
_________________________________________________________________
 Layer (type)                Output Shape              Param #   
=================================================================
 embedding_4 (Embedding)     (None, 40, 150)           450000000 
                                                                 
 conv1d_4 (Conv1D)           (None, 36, 128)           96128     
                                                                 
 max_pooling1d_4 (MaxPoolin  (None, 18, 128)           0         
 g1D)                                                            
                                                                 
 lstm_4 (LSTM)               (None, 18, 32)            20608     
                                                                 
 global_max_pooling1d_4 (Gl  (None, 32)                0         
 obalMaxPooling1D)                                               
                                                                 
 dense_8 (Dense)             (None, 64)                2112      
                                                                 
 dropout_4 (Dropout)         (None, 64)                0         
                                                                 
 dense_9 (Dense)             (None, 5)                 325       
                                                                 
=================================================================
Total params: 450119173 (1.68 GB)
Trainable params: 119173 (465.52 KB)
Non-trainable params: 450000000 (1.68 GB)
_________________________________________________________________
2023-10-25 15:45:55,001 - root - INFO - Test Loss: 0.6378461122512817
2023-10-25 15:45:55,001 - root - INFO - Test Accuracy: 0.7739999890327454
2023-10-25 15:45:55,001 - root - INFO - Testing hyperparameters: Embedding Size=150, Conv Width=128, LSTM Units=64, Dense Units=64, Batch Size=64
2023-10-25 15:46:49,490 - root - INFO - Model Architecture:
Model: "sequential_5"
_________________________________________________________________
 Layer (type)                Output Shape              Param #   
=================================================================
 embedding_5 (Embedding)     (None, 40, 150)           450000000 
                                                                 
 conv1d_5 (Conv1D)           (None, 36, 128)           96128     
                                                                 
 max_pooling1d_5 (MaxPoolin  (None, 18, 128)           0         
 g1D)                                                            
                                                                 
 lstm_5 (LSTM)               (None, 18, 64)            49408     
                                                                 
 global_max_pooling1d_5 (Gl  (None, 64)                0         
 obalMaxPooling1D)                                               
                                                                 
 dense_10 (Dense)            (None, 64)                4160      
                                                                 
 dropout_5 (Dropout)         (None, 64)                0         
                                                                 
 dense_11 (Dense)            (None, 5)                 325       
                                                                 
=================================================================
Total params: 450150021 (1.68 GB)
Trainable params: 150021 (586.02 KB)
Non-trainable params: 450000000 (1.68 GB)
_________________________________________________________________
2023-10-25 15:46:49,492 - root - INFO - Test Loss: 0.6328029632568359
2023-10-25 15:46:49,492 - root - INFO - Test Accuracy: 0.800000011920929
2023-10-25 15:46:49,492 - root - INFO - Testing hyperparameters: Embedding Size=150, Conv Width=128, LSTM Units=32, Dense Units=128, Batch Size=64
2023-10-25 15:47:28,248 - root - INFO - Model Architecture:
Model: "sequential_6"
_________________________________________________________________
 Layer (type)                Output Shape              Param #   
=================================================================
 embedding_6 (Embedding)     (None, 40, 150)           450000000 
                                                                 
 conv1d_6 (Conv1D)           (None, 36, 128)           96128     
                                                                 
 max_pooling1d_6 (MaxPoolin  (None, 18, 128)           0         
 g1D)                                                            
                                                                 
 lstm_6 (LSTM)               (None, 18, 32)            20608     
                                                                 
 global_max_pooling1d_6 (Gl  (None, 32)                0         
 obalMaxPooling1D)                                               
                                                                 
 dense_12 (Dense)            (None, 128)               4224      
                                                                 
 dropout_6 (Dropout)         (None, 128)               0         
                                                                 
 dense_13 (Dense)            (None, 5)                 645       
                                                                 
=================================================================
Total params: 450121605 (1.68 GB)
Trainable params: 121605 (475.02 KB)
Non-trainable params: 450000000 (1.68 GB)
_________________________________________________________________
2023-10-25 15:47:28,250 - root - INFO - Test Loss: 0.7259257435798645
2023-10-25 15:47:28,250 - root - INFO - Test Accuracy: 0.75

2023-10-25 15:47:28,250 - root - INFO - Testing hyperparameters: Embedding Size=150, Conv Width=128, LSTM Units=64, Dense Units=128, Batch Size=64
2023-10-25 15:48:43,851 - root - INFO - Model Architecture:
Model: "sequential_7"
_________________________________________________________________
 Layer (type)                Output Shape              Param #   
=================================================================
 embedding_7 (Embedding)     (None, 40, 150)           450000000 
                                                                 
 conv1d_7 (Conv1D)           (None, 36, 128)           96128     
                                                                 
 max_pooling1d_7 (MaxPoolin  (None, 18, 128)           0         
 g1D)                                                            
                                                                 
 lstm_7 (LSTM)               (None, 18, 64)            49408     
                                                                 
 global_max_pooling1d_7 (Gl  (None, 64)                0         
 obalMaxPooling1D)                                               
                                                                 
 dense_14 (Dense)            (None, 128)               8320      
                                                                 
 dropout_7 (Dropout)         (None, 128)               0         
                                                                 
 dense_15 (Dense)            (None, 5)                 645       
                                                                 
=================================================================
Total params: 450154501 (1.68 GB)
Trainable params: 154501 (603.52 KB)
Non-trainable params: 450000000 (1.68 GB)
_________________________________________________________________
2023-10-25 15:48:43,852 - root - INFO - Test Loss: 0.6288853287696838
2023-10-25 15:48:43,852 - root - INFO - Test Accuracy: 0.8140000104904175
…
2023-10-25 15:50:11,263 - gensim.utils - INFO - KeyedVectors lifecycle event {'fname': 'models/pretrained/word2vec_model.gensim', 'datetime': '2023-10-25T15:50:11.243542', 'gensim': '4.3.2', 'python': '3.10.13 (main, Sep 11 2023, 08:39:02) [Clang 14.0.6 ]', 'platform': 'macOS-10.16-x86_64-i386-64bit', 'event': 'loaded'}
2023-10-25 15:50:16,557 - root - INFO - Testing hyperparameters: Embedding Size=150, LSTM Units=32, Batch Size=64
2023-10-25 15:51:21,658 - root - INFO - Model Architecture:
Model: "sequential_8"
_________________________________________________________________
 Layer (type)                Output Shape              Param #   
=================================================================
 embedding_8 (Embedding)     (None, 40, 150)           450000000 
                                                                 
 lstm_8 (LSTM)               (None, 40, 32)            23424     
                                                                 
 lstm_9 (LSTM)               (None, 32)                8320      
                                                                 
 dense_16 (Dense)            (None, 128)               4224      
                                                                 
 dropout_8 (Dropout)         (None, 128)               0         
                                                                 
 dense_17 (Dense)            (None, 5)                 645       
                                                                 
=================================================================
Total params: 450036613 (1.68 GB)
Trainable params: 36613 (143.02 KB)
Non-trainable params: 450000000 (1.68 GB)
_________________________________________________________________
2023-10-25 15:51:21,659 - root - INFO - Test Loss: 1.3962290287017822
2023-10-25 15:51:21,659 - root - INFO - Test Accuracy: 0.4059999883174896
2023-10-25 15:51:21,659 - root - INFO - Testing hyperparameters: Embedding Size=150, LSTM Units=64, Batch Size=64
2023-10-25 15:53:31,082 - root - INFO - Model Architecture:
Model: "sequential_9"
_________________________________________________________________
 Layer (type)                Output Shape              Param #   
=================================================================
 embedding_9 (Embedding)     (None, 40, 150)           450000000 
                                                                 
 lstm_10 (LSTM)              (None, 40, 64)            55040     
                                                                 
 lstm_11 (LSTM)              (None, 64)                33024     
                                                                 
 dense_18 (Dense)            (None, 128)               8320      
                                                                 
 dropout_9 (Dropout)         (None, 128)               0         
                                                                 
 dense_19 (Dense)            (None, 5)                 645       
                                                                 
=================================================================
Total params: 450097029 (1.68 GB)
Trainable params: 97029 (379.02 KB)
Non-trainable params: 450000000 (1.68 GB)
_________________________________________________________________
2023-10-25 15:53:31,087 - root - INFO - Test Loss: 1.3946424722671509
2023-10-25 15:53:31,087 - root - INFO - Test Accuracy: 0.4059999883174896
…
2023-10-25 16:06:59,604 - root - INFO - Model Architecture:
Model: "model_1"
__________________________________________________________________________________________________
 Layer (type)                Output Shape                 Param #   Connected to                  
==================================================================================================
 input_2 (InputLayer)        [(None, 40)]                 0         []                            
                                                                                                  
 embedding_12 (Embedding)    (None, 40, 150)              4500000   ['input_2[0][0]']             
                                                          00                                      
                                                                                                  
 multi_head_attention_2 (Mu  (None, 40, 150)              361950    ['embedding_12[0][0]',        
 ltiHeadAttention)                                                   'embedding_12[0][0]']        
                                                                                                  
 global_max_pooling1d_10 (G  (None, 150)                  0         ['multi_head_attention_2[0][0]
 lobalMaxPooling1D)                                                 ']                            
                                                                                                  
 dense_24 (Dense)            (None, 64)                   9664      ['global_max_pooling1d_10[0][0
                                                                    ]']                           
                                                                                                  
 dropout_13 (Dropout)        (None, 64)                   0         ['dense_24[0][0]']            
                                                                                                  
 dense_25 (Dense)            (None, 5)                    325       ['dropout_13[0][0]']          
                                                                                                  
==================================================================================================
Total params: 450371939 (1.68 GB)
Trainable params: 371939 (1.42 MB)
Non-trainable params: 450000000 (1.68 GB)
__________________________________________________________________________________________________
…
2023-10-25 16:10:48,302 - root - INFO - Model Architecture:
Model: "model_2"
__________________________________________________________________________________________________
 Layer (type)                Output Shape                 Param #   Connected to                  
==================================================================================================
 input_3 (InputLayer)        [(None, 40)]                 0         []                            
                                                                                                  
 embedding_13 (Embedding)    (None, 40, 150)              4500000   ['input_3[0][0]']             
                                                          00                                      
                                                                                                  
 multi_head_attention_3 (Mu  (None, 40, 150)              723750    ['embedding_13[0][0]',        
 ltiHeadAttention)                                                   'embedding_13[0][0]']        
                                                                                                  
 global_max_pooling1d_11 (G  (None, 150)                  0         ['multi_head_attention_3[0][0]
 lobalMaxPooling1D)                                                 ']                            
                                                                                                  
 dense_26 (Dense)            (None, 64)                   9664      ['global_max_pooling1d_11[0][0
                                                                    ]']                           
                                                                                                  
 dropout_14 (Dropout)        (None, 64)                   0         ['dense_26[0][0]']            
                                                                                                  
 dense_27 (Dense)            (None, 5)                    325       ['dropout_14[0][0]']          
                                                                                                  
==================================================================================================
Total params: 450733739 (1.68 GB)
Trainable params: 733739 (2.80 MB)
Non-trainable params: 450000000 (1.68 GB)
__________________________________________________________________________________________________
…
2023-10-25 18:42:43,521 - root - INFO - Testing hyperparameters: Embedding Size=100, Conv Width=128, LSTM Units=32, Dense Units=64, Batch Size=64

2023-10-25 18:44:38,529 - root - INFO - Testing hyperparameters: Embedding Size=100, Conv Width=128, LSTM Units=32, Dense Units=64, Batch Size=64

2023-10-25 18:45:25,137 - root - INFO - Model Architecture:
Model: "sequential"
_________________________________________________________________
 Layer (type)                Output Shape              Param #   
=================================================================
 embedding (Embedding)       (None, 40, 100)           300000000 
                                                                 
 conv1d (Conv1D)             (None, 36, 128)           64128     
                                                                 
 max_pooling1d (MaxPooling1  (None, 18, 128)           0         
 D)                                                              
                                                                 
 lstm (LSTM)                 (None, 18, 32)            20608     
                                                                 
 seq_self_attention (SeqSel  (None, 18, 32)            2113      
 fAttention)                                                     
                                                                 
 global_average_pooling1d (  (None, 32)                0         
 GlobalAveragePooling1D)                                         
                                                                 
 dense (Dense)               (None, 64)                2112      
                                                                 
 dropout (Dropout)           (None, 64)                0         
                                                                 
 batch_normalization (Batch  (None, 64)                256       
 Normalization)                                                  
                                                                 
 dense_1 (Dense)             (None, 5)                 325       
                                                                 
=================================================================
Total params: 300089542 (1.12 GB)
Trainable params: 89414 (349.27 KB)
Non-trainable params: 300000128 (1.12 GB)
_________________________________________________________________

2023-10-25 18:45:25,138 - root - INFO - Test Loss: 0.7229686379432678

2023-10-25 18:45:25,138 - root - INFO - Test Accuracy: 0.7440000176429749

2023-10-25 18:45:25,138 - root - INFO - Testing hyperparameters: Embedding Size=100, Conv Width=128, LSTM Units=64, Dense Units=64, Batch Size=64

2023-10-25 18:46:14,215 - root - INFO - Model Architecture:
Model: "sequential_1"
_________________________________________________________________
 Layer (type)                Output Shape              Param #   
=================================================================
 embedding_1 (Embedding)     (None, 40, 100)           300000000 
                                                                 
 conv1d_1 (Conv1D)           (None, 36, 128)           64128     
                                                                 
 max_pooling1d_1 (MaxPoolin  (None, 18, 128)           0         
 g1D)                                                            
                                                                 
 lstm_1 (LSTM)               (None, 18, 64)            49408     
                                                                 
 seq_self_attention_1 (SeqS  (None, 18, 64)            4161      
 elfAttention)                                                   
                                                                 
 global_average_pooling1d_1  (None, 64)                0         
  (GlobalAveragePooling1D)                                       
                                                                 
 dense_2 (Dense)             (None, 64)                4160      
                                                                 
 dropout_1 (Dropout)         (None, 64)                0         
                                                                 
 batch_normalization_1 (Bat  (None, 64)                256       
 chNormalization)                                                
                                                                 
 dense_3 (Dense)             (None, 5)                 325       
                                                                 
=================================================================
Total params: 300122438 (1.12 GB)
Trainable params: 122310 (477.77 KB)
Non-trainable params: 300000128 (1.12 GB)
_________________________________________________________________

2023-10-25 18:46:14,215 - root - INFO - Testing hyperparameters: Embedding Size=100, Conv Width=128, LSTM Units=32, Dense Units=128, Batch Size=64

2023-10-25 18:46:48,669 - root - INFO - Model Architecture:
Model: "sequential_2"
_________________________________________________________________
 Layer (type)                Output Shape              Param #   
=================================================================
 embedding_2 (Embedding)     (None, 40, 100)           300000000 
                                                                 
 conv1d_2 (Conv1D)           (None, 36, 128)           64128     
                                                                 
 max_pooling1d_2 (MaxPoolin  (None, 18, 128)           0         
 g1D)                                                            
                                                                 
 lstm_2 (LSTM)               (None, 18, 32)            20608     
                                                                 
 seq_self_attention_2 (SeqS  (None, 18, 32)            2113      
 elfAttention)                                                   
                                                                 
 global_average_pooling1d_2  (None, 32)                0         
  (GlobalAveragePooling1D)                                       
                                                                 
 dense_4 (Dense)             (None, 128)               4224      
                                                                 
 dropout_2 (Dropout)         (None, 128)               0         
                                                                 
 batch_normalization_2 (Bat  (None, 128)               512       
 chNormalization)                                                
                                                                 
 dense_5 (Dense)             (None, 5)                 645       
                                                                 
=================================================================
Total params: 300092230 (1.12 GB)
Trainable params: 91974 (359.27 KB)
Non-trainable params: 300000256 (1.12 GB)
_________________________________________________________________

2023-10-25 18:46:48,670 - root - INFO - Test Loss: 0.5942072868347168

2023-10-25 18:46:48,670 - root - INFO - Test Accuracy: 0.7799999713897705


2023-10-25 18:46:48,670 - root - INFO - Testing hyperparameters: Embedding Size=100, Conv Width=128, LSTM Units=64, Dense Units=128, Batch Size=64

2023-10-25 18:47:32,974 - root - INFO - Model Architecture:
Model: "sequential_3"
_________________________________________________________________
 Layer (type)                Output Shape              Param #   
=================================================================
 embedding_3 (Embedding)     (None, 40, 100)           300000000 
                                                                 
 conv1d_3 (Conv1D)           (None, 36, 128)           64128     
                                                                 
 max_pooling1d_3 (MaxPoolin  (None, 18, 128)           0         
 g1D)                                                            
                                                                 
 lstm_3 (LSTM)               (None, 18, 64)            49408     
                                                                 
 seq_self_attention_3 (SeqS  (None, 18, 64)            4161      
 elfAttention)                                                   
                                                                 
 global_average_pooling1d_3  (None, 64)                0         
  (GlobalAveragePooling1D)                                       
                                                                 
 dense_6 (Dense)             (None, 128)               8320      
                                                                 
 dropout_3 (Dropout)         (None, 128)               0         
                                                                 
 batch_normalization_3 (Bat  (None, 128)               512       
 chNormalization)                                                
                                                                 
 dense_7 (Dense)             (None, 5)                 645       
                                                                 
=================================================================
Total params: 300127174 (1.12 GB)
Trainable params: 126918 (495.77 KB)
Non-trainable params: 300000256 (1.12 GB)
_________________________________________________________________

2023-10-25 18:47:32,976 - root - INFO - Test Loss: 0.6376305222511292

2023-10-25 18:47:32,976 - root - INFO - Test Accuracy: 0.7979999780654907

2023-10-25 18:53:29,014 - root - INFO - Testing hyperparameters: Embedding Size=50, Conv Width=128, LSTM Units=64, Dense Units=128, Batch Size=64
2023-10-25 18:54:02,471 - root - INFO - Model Architecture:
Model: "sequential"
_________________________________________________________________
 Layer (type)                Output Shape              Param #   
=================================================================
 embedding (Embedding)       (None, 40, 50)            150000000 
                                                                 
 conv1d (Conv1D)             (None, 36, 128)           32128     
                                                                 
 max_pooling1d (MaxPooling1  (None, 18, 128)           0         
 D)                                                              
                                                                 
 lstm (LSTM)                 (None, 18, 64)            49408     
                                                                 
 seq_self_attention (SeqSel  (None, 18, 64)            4161      
 fAttention)                                                     
                                                                 
 global_average_pooling1d (  (None, 64)                0         
 GlobalAveragePooling1D)                                         
                                                                 
 dense (Dense)               (None, 128)               8320      
                                                                 
 dropout (Dropout)           (None, 128)               0         
                                                                 
 batch_normalization (Batch  (None, 128)               512       
 Normalization)                                                  
                                                                 
 dense_1 (Dense)             (None, 5)                 645       
                                                                 
=================================================================
Total params: 150095174 (572.57 MB)
Trainable params: 94918 (370.77 KB)
Non-trainable params: 150000256 (572.21 MB)
_________________________________________________________________
2023-10-25 18:54:02,471 - root - INFO - Test Loss: 0.678020715713501
2023-10-25 18:54:02,472 - root - INFO - Test Accuracy: 0.7540000081062317
…
2023-10-25 18:54:02,472 - root - INFO - Testing hyperparameters: Embedding Size=100, Conv Width=128, LSTM Units=64, Dense Units=128, Batch Size=64
2023-10-25 18:54:40,002 - root - INFO - Test Loss: 0.6686382293701172
2023-10-25 18:54:40,002 - root - INFO - Test Accuracy: 0.7620000243186951
#####################################################################################################################

2023-10-25 19:03:02,901 - root - INFO - Model Architecture:
Model: "sequential"
_________________________________________________________________
 Layer (type)                Output Shape              Param #   
=================================================================
 embedding (Embedding)       (None, 40, 150)           450000000 
                                                                 
 conv1d (Conv1D)             (None, 36, 128)           96128     
                                                                 
 max_pooling1d (MaxPooling1  (None, 18, 128)           0         
 D)                                                              
                                                                 
 lstm (LSTM)                 (None, 18, 64)            49408     
                                                                 
 seq_self_attention (SeqSel  (None, 18, 64)            4161      
 fAttention)                                                     
                                                                 
 global_average_pooling1d (  (None, 64)                0         
 GlobalAveragePooling1D)                                         
                                                                 
 dense (Dense)               (None, 128)               8320      
                                                                 
 dropout (Dropout)           (None, 128)               0         
                                                                 
 batch_normalization (Batch  (None, 128)               512       
 Normalization)                                                  
                                                                 
 dense_1 (Dense)             (None, 5)                 645       
                                                                 
=================================================================
Total params: 450159174 (1.68 GB)
Trainable params: 158918 (620.77 KB)
Non-trainable params: 450000256 (1.68 GB)
_________________________________________________________________
2023-10-25 19:03:43,102 - root - INFO - Testing hyperparameters: Embedding Size=150, Conv Width=128, LSTM Units=64, Dense Units=128, Batch Size=64
2023-10-25 19:03:43,103 - root - INFO - Test Loss: 0.6460219025611877
2023-10-25 19:03:43,103 - root - INFO - Test Accuracy: 0.7620000243186951
#####################################################################################################################

2023-10-25 19:04:47,010 - root - INFO - Model Architecture:
Model: "sequential"
_________________________________________________________________
 Layer (type)                Output Shape              Param #   
=================================================================
 embedding (Embedding)       (None, 40, 150)           450000000 
                                                                 
 conv1d (Conv1D)             (None, 36, 128)           96128     
                                                                 
 max_pooling1d (MaxPooling1  (None, 18, 128)           0         
 D)                                                              
                                                                 
 lstm (LSTM)                 (None, 18, 64)            49408     
                                                                 
 global_average_pooling1d (  (None, 64)                0         
 GlobalAveragePooling1D)                                         
                                                                 
 dense (Dense)               (None, 128)               8320      
                                                                 
 dropout (Dropout)           (None, 128)               0         
                                                                 
 batch_normalization (Batch  (None, 128)               512       
 Normalization)                                                  
                                                                 
 dense_1 (Dense)             (None, 5)                 645       
                                                                 
=================================================================
Total params: 450155013 (1.68 GB)
Trainable params: 154757 (604.52 KB)
Non-trainable params: 450000256 (1.68 GB)
_________________________________________________________________
2023-10-25 19:05:36,978 - root - INFO - Testing hyperparameters: Embedding Size=150, Conv Width=128, LSTM Units=64, Dense Units=128, Batch Size=64
2023-10-25 19:05:36,979 - root - INFO - Test Loss: 0.6246057748794556
2023-10-25 19:05:36,979 - root - INFO - Test Accuracy: 0.8159999847412109
#####################################################################################################################

2023-10-25 19:08:04,766 - root - INFO - Model Architecture:
Model: "sequential"
_________________________________________________________________
 Layer (type)                Output Shape              Param #   
=================================================================
 embedding (Embedding)       (None, 40, 150)           450000000 
                                                                 
 conv1d (Conv1D)             (None, 34, 128)           134528    
                                                                 
 max_pooling1d (MaxPooling1  (None, 17, 128)           0         
 D)                                                              
                                                                 
 lstm (LSTM)                 (None, 17, 64)            49408     
                                                                 
 global_average_pooling1d (  (None, 64)                0         
 GlobalAveragePooling1D)                                         
                                                                 
 dense (Dense)               (None, 128)               8320      
                                                                 
 dropout (Dropout)           (None, 128)               0         
                                                                 
 batch_normalization (Batch  (None, 128)               512       
 Normalization)                                                  
                                                                 
 dense_1 (Dense)             (None, 5)                 645       
                                                                 
=================================================================
Total params: 450193413 (1.68 GB)
Trainable params: 193157 (754.52 KB)
Non-trainable params: 450000256 (1.68 GB)
_________________________________________________________________
2023-10-25 19:08:42,644 - root - INFO - Testing hyperparameters: Embedding Size=150, Conv Width=128, LSTM Units=64, Dense Units=128, Batch Size=64
…
2023-10-25 19:11:27,585 - root - INFO - Testing hyperparameters: Embedding Size=250, Conv Width=128, LSTM Units=64, Dense Units=128, Batch Size=64
2023-10-25 19:11:27,591 - root - INFO - Test Loss: 0.7044646143913269
2023-10-25 19:11:27,592 - root - INFO - Test Accuracy: 0.7760000228881836
#####################################################################################################################

2023-10-25 19:14:47,115 - root - INFO - Model Architecture:
Model: "sequential"
_________________________________________________________________
 Layer (type)                Output Shape              Param #   
=================================================================
 embedding (Embedding)       (None, 40, 100)           300000000 
                                                                 
 conv1d (Conv1D)             (None, 38, 64)            19264     
                                                                 
 max_pooling1d (MaxPooling1  (None, 19, 64)            0         
 D)                                                              
                                                                 
 lstm (LSTM)                 (None, 19, 64)            33024     
                                                                 
 global_average_pooling1d (  (None, 64)                0         
 GlobalAveragePooling1D)                                         
                                                                 
 dense (Dense)               (None, 64)                4160      
                                                                 
 dropout (Dropout)           (None, 64)                0         
                                                                 
 batch_normalization (Batch  (None, 64)                256       
 Normalization)                                                  
                                                                 
 dense_1 (Dense)             (None, 5)                 325       
                                                                 
=================================================================
Total params: 300057029 (1.12 GB)
Trainable params: 56901 (222.27 KB)
Non-trainable params: 300000128 (1.12 GB)
_________________________________________________________________
2023-10-25 19:15:39,061 - root - INFO - Testing hyperparameters: Embedding Size=100, Conv Width=64, LSTM Units=64, Dense Units=64, Batch Size=32
…
