…
2023-10-25 06:09:08,738 - gensim.utils - INFO - KeyedVectors lifecycle event {'fname': 'models/pretrained/word2vec_model.gensim', 'datetime': '2023-10-25T06:09:08.737327', 'gensim': '4.3.2', 'python': '3.10.13 (main, Sep 11 2023, 08:39:02) [Clang 14.0.6 ]', 'platform': 'macOS-10.16-x86_64-i386-64bit', 'event': 'loaded'}
2023-10-25 06:09:11,615 - root - INFO - Testing hyperparameters: Embedding Size=150, LSTM Units=64, GRU Units=32, Batch Size=64
2023-10-25 06:10:56,086 - root - INFO - Model Architecture:
Model: "sequential_1"
_________________________________________________________________
 Layer (type)                Output Shape              Param #   
=================================================================
 embedding_1 (Embedding)     (None, 40, 150)           450000000 
                                                                 
 bidirectional_2 (Bidirecti  (None, 40, 128)           110080    
 onal)                                                           
                                                                 
 bidirectional_3 (Bidirecti  (None, 64)                31104     
 onal)                                                           
                                                                 
 dropout_2 (Dropout)         (None, 64)                0         
                                                                 
 dense_2 (Dense)             (None, 256)               16640     
                                                                 
 dropout_3 (Dropout)         (None, 256)               0         
                                                                 
 dense_3 (Dense)             (None, 5)                 1285      
                                                                 
=================================================================
Total params: 450159109 (1.68 GB)
Trainable params: 159109 (621.52 KB)
Non-trainable params: 450000000 (1.68 GB)
_________________________________________________________________
2023-10-25 06:10:56,105 - root - INFO - Test Loss: 0.5296029448509216
2023-10-25 06:10:56,105 - root - INFO - Test Accuracy: 0.8199999928474426
2023-10-25 06:10:56,106 - root - INFO - Testing hyperparameters: Embedding Size=150, LSTM Units=128, GRU Units=32, Batch Size=64
2023-10-25 06:14:20,709 - root - INFO - Model Architecture:
Model: "sequential_2"
_________________________________________________________________
 Layer (type)                Output Shape              Param #   
=================================================================
 embedding_2 (Embedding)     (None, 40, 150)           450000000 
                                                                 
 bidirectional_4 (Bidirecti  (None, 40, 256)           285696    
 onal)                                                           
                                                                 
 bidirectional_5 (Bidirecti  (None, 64)                55680     
 onal)                                                           
                                                                 
 dropout_4 (Dropout)         (None, 64)                0         
                                                                 
 dense_4 (Dense)             (None, 256)               16640     
                                                                 
 dropout_5 (Dropout)         (None, 256)               0         
                                                                 
 dense_5 (Dense)             (None, 5)                 1285      
                                                                 
=================================================================
Total params: 450359301 (1.68 GB)
Trainable params: 359301 (1.37 MB)
Non-trainable params: 450000000 (1.68 GB)
_________________________________________________________________
2023-10-25 06:14:20,712 - root - INFO - Test Loss: 0.4850429594516754
2023-10-25 06:14:20,712 - root - INFO - Test Accuracy: 0.8320000171661377
2023-10-25 06:14:20,713 - root - INFO - Testing hyperparameters: Embedding Size=150, LSTM Units=64, GRU Units=64, Batch Size=64
2023-10-25 06:16:41,826 - root - INFO - Model Architecture:
Model: "sequential_3"
_________________________________________________________________
 Layer (type)                Output Shape              Param #   
=================================================================
 embedding_3 (Embedding)     (None, 40, 150)           450000000 
                                                                 
 bidirectional_6 (Bidirecti  (None, 40, 128)           110080    
 onal)                                                           
                                                                 
 bidirectional_7 (Bidirecti  (None, 128)               74496     
 onal)                                                           
                                                                 
 dropout_6 (Dropout)         (None, 128)               0         
                                                                 
 dense_6 (Dense)             (None, 256)               33024     
                                                                 
 dropout_7 (Dropout)         (None, 256)               0         
                                                                 
 dense_7 (Dense)             (None, 5)                 1285      
                                                                 
=================================================================
Total params: 450218885 (1.68 GB)
Trainable params: 218885 (855.02 KB)
Non-trainable params: 450000000 (1.68 GB)
_________________________________________________________________
2023-10-25 06:16:41,832 - root - INFO - Test Loss: 0.5625773668289185
2023-10-25 06:16:41,833 - root - INFO - Test Accuracy: 0.8220000267028809
2023-10-25 06:16:41,835 - root - INFO - Testing hyperparameters: Embedding Size=150, LSTM Units=128, GRU Units=64, Batch Size=64
2023-10-25 06:20:02,752 - root - INFO - Model Architecture:
Model: "sequential_4"
_________________________________________________________________
 Layer (type)                Output Shape              Param #   
=================================================================
 embedding_4 (Embedding)     (None, 40, 150)           450000000 
                                                                 
 bidirectional_8 (Bidirecti  (None, 40, 256)           285696    
 onal)                                                           
                                                                 
 bidirectional_9 (Bidirecti  (None, 128)               123648    
 onal)                                                           
                                                                 
 dropout_8 (Dropout)         (None, 128)               0         
                                                                 
 dense_8 (Dense)             (None, 256)               33024     
                                                                 
 dropout_9 (Dropout)         (None, 256)               0         
                                                                 
 dense_9 (Dense)             (None, 5)                 1285      
                                                                 
=================================================================
Total params: 450443653 (1.68 GB)
Trainable params: 443653 (1.69 MB)
Non-trainable params: 450000000 (1.68 GB)
_________________________________________________________________
2023-10-25 06:20:02,754 - root - INFO - Test Loss: 0.5717594027519226
2023-10-25 06:20:02,754 - root - INFO - Test Accuracy: 0.8100000023841858
…
